…
  GAMMA: 0.1
  LRS: [1, 0.1, 0.01]
  LR_POLICY: steps_with_relative_lrs
  MAX_EPOCH: 50
  MOMENTUM: 0.9
  NESTEROV: True
  OPTIMIZING_METHOD: sgd
  STEPS: [0, 30, 40]
  STEP_SIZE: 1
  WARMUP_EPOCHS: -1.0
  WARMUP_FACTOR: 0.1
  WARMUP_START_LR: 0.01
  WEIGHT_DECAY: 0.0001
TEST:
  BATCH_SIZE: 128
  CHECKPOINT_FILE_PATH: /home/server-05/YU/OGM-GE_CVPR2022/TIM-main/feature_extractors/auditory_slowfast/SLOWFAST_VGG.pyth
  DATASET: ave
  INDEX: 0
  NUM_FEATURES: 5
  SAVE_RESULTS_PATH: 
[04/19 17:24:30][INFO] misc.py: 132: Model:
SlowFast(
  (s1): AudioModelStem(
    (pathway0_stem): ResNetBasicStem(
      (conv): Conv2d(1, 64, kernel_size=(1, 7), stride=(2, 2), padding=(0, 3), bias=False)
      (bn): BatchNorm2d(64, eps=1e-05, momentum=0.1, affine=True, track_running_stats=True)
      (relu): ReLU(inplace=True)
      (pool_layer): MaxPool2d(kernel_size=[3, 3], stride=[2, 2], padding=[1, 1], dilation=1, ceil_mode=False)
    )
    (pathway1_stem): ResNetBasicStem(
      (conv): Conv2d(1, 8, kernel_size=(5, 7), stride=(2, 2), padding=(2, 3), bias=False)
      (bn): BatchNorm2d(8, eps=1e-05, momentum=0.1, affine=True, track_running_stats=True)
      (relu): ReLU(inplace=True)
      (pool_layer): MaxPool2d(kernel_size=[3, 3], stride=[2, 2], padding=[1, 1], dilation=1, ceil_mode=False)
    )
  )
  (s1_fuse): FuseFastToSlow(
    (conv_f2s): Conv2d(8, 16, kernel_size=(7, 1), stride=(4, 1), padding=(3, 0), bias=False)
    (bn): BatchNorm2d(16, eps=1e-05, momentum=0.1, affine=True, track_running_stats=True)
    (relu): ReLU(inplace=True)
  )
  (s2): ResStage(
    (pathway0_res0): ResBlock(
      (branch1): Conv2d(80, 256, kernel_size=(1, 1), stride=(1, 1), bias=False)
      (branch1_bn): BatchNorm2d(256, eps=1e-05, momentum=0.1, affine=True, track_running_stats=True)
      (branch2): BottleneckTransform(
        (a): Conv2d(80, 64, kernel_size=(1, 1), stride=(1, 1), bias=False)
        (a_bn): BatchNorm2d(64, eps=1e-05, momentum=0.1, affine=True, track_running_stats=True)
        (a_relu): ReLU(inplace=True)
        (b): Conv2d(64, 64, kernel_size=(1, 3), stride=(1, 1), padding=(0, 1), bias=False)
        (b_bn): BatchNorm2d(64, eps=1e-05, momentum=0.1, affine=True, track_running_stats=True)
        (b_relu): ReLU(inplace=True)
        (c): Conv2d(64, 256, kernel_size=(1, 1), stride=(1, 1), bias=False)
        (c_bn): BatchNorm2d(256, eps=1e-05, momentum=0.1, affine=True, track_running_stats=True)
      )
      (relu): ReLU(inplace=True)
    )
    (pathway0_res1): ResBlock(
      (branch2): BottleneckTransform(
        (a): Conv2d(256, 64, kernel_size=(1, 1), stride=(1, 1), bias=False)
        (a_bn): BatchNorm2d(64, eps=1e-05, momentum=0.1, affine=True, track_running_stats=True)
        (a_relu): ReLU(inplace=True)
        (b): Conv2d(64, 64, kernel_size=(1, 3), stride=(1, 1), padding=(0, 1), bias=False)
        (b_bn): BatchNorm2d(64, eps=1e-05, momentum=0.1, affine=True, track_running_stats=True)
        (b_relu): ReLU(inplace=True)
        (c): Conv2d(64, 256, kernel_size=(1, 1), stride=(1, 1), bias=False)
        (c_bn): BatchNorm2d(256, eps=1e-05, momentum=0.1, affine=True, track_running_stats=True)
      )
      (relu): ReLU(inplace=True)
    )
    (pathway0_res2): ResBlock(
      (branch2): BottleneckTransform(
        (a): Conv2d(256, 64, kernel_size=(1, 1), stride=(1, 1), bias=False)
        (a_bn): BatchNorm2d(64, eps=1e-05, momentum=0.1, affine=True, track_running_stats=True)
        (a_relu): ReLU(inplace=True)
        (b): Conv2d(64, 64, kernel_size=(1, 3), stride=(1, 1), padding=(0, 1), bias=False)
        (b_bn): BatchNorm2d(64, eps=1e-05, momentum=0.1, affine=True, track_running_stats=True)
        (b_relu): ReLU(inplace=True)
        (c): Conv2d(64, 256, kernel_size=(1, 1), stride=(1, 1), bias=False)
        (c_bn): BatchNorm2d(256, eps=1e-05, momentum=0.1, affine=True, track_running_stats=True)
      )
      (relu): ReLU(inplace=True)
    )
    (pathway1_res0): ResBlock(
      (branch1): Conv2d(8, 32, kernel_size=(1, 1), stride=(1, 1), bias=False)
      (branch1_bn): BatchNorm2d(32, eps=1e-05, momentum=0.1, affine=True, track_running_stats=True)
      (branch2): BottleneckTransform(
        (a): Conv2d(8, 8, kernel_size=(3, 1), stride=(1, 1), padding=(1, 0), bias=False)
        (a_bn): BatchNorm2d(8, eps=1e-05, momentum=0.1, affine=True, track_running_stats=True)
        (a_relu): ReLU(inplace=True)
        (b): Conv2d(8, 8, kernel_size=(1, 3), stride=(1, 1), padding=(0, 1), bias=False)
        (b_bn): BatchNorm2d(8, eps=1e-05, momentum=0.1, affine=True, track_running_stats=True)
        (b_relu): ReLU(inplace=True)
        (c): Conv2d(8, 32, kernel_size=(1, 1), stride=(1, 1), bias=False)
        (c_bn): BatchNorm2d(32, eps=1e-05, momentum=0.1, affine=True, track_running_stats=True)
      )
      (relu): ReLU(inplace=True)
    )
    (pathway1_res1): ResBlock(
      (branch2): BottleneckTransform(
        (a): Conv2d(32, 8, kernel_size=(3, 1), stride=(1, 1), padding=(1, 0), bias=False)
        (a_bn): BatchNorm2d(8, eps=1e-05, momentum=0.1, affine=True, track_running_stats=True)
        (a_relu): ReLU(inplace=True)
        (b): Conv2d(8, 8, kernel_size=(1, 3), stride=(1, 1), padding=(0, 1), bias=False)
        (b_bn): BatchNorm2d(8, eps=1e-05, momentum=0.1, affine=True, track_running_stats=True)
        (b_relu): ReLU(inplace=True)
        (c): Conv2d(8, 32, kernel_size=(1, 1), stride=(1, 1), bias=False)
        (c_bn): BatchNorm2d(32, eps=1e-05, momentum=0.1, affine=True, track_running_stats=True)
      )
      (relu): ReLU(inplace=True)
    )
    (pathway1_res2): ResBlock(
      (branch2): BottleneckTransform(
        (a): Conv2d(32, 8, kernel_size=(3, 1), stride=(1, 1), padding=(1, 0), bias=False)
        (a_bn): BatchNorm2d(8, eps=1e-05, momentum=0.1, affine=True, track_running_stats=True)
        (a_relu): ReLU(inplace=True)
        (b): Conv2d(8, 8, kernel_size=(1, 3), stride=(1, 1), padding=(0, 1), bias=False)
        (b_bn): BatchNorm2d(8, eps=1e-05, momentum=0.1, affine=True, track_running_stats=True)
        (b_relu): ReLU(inplace=True)
        (c): Conv2d(8, 32, kernel_size=(1, 1), stride=(1, 1), bias=False)
        (c_bn): BatchNorm2d(32, eps=1e-05, momentum=0.1, affine=True, track_running_stats=True)
      )
      (relu): ReLU(inplace=True)
    )
  )
  (s2_fuse): FuseFastToSlow(
    (conv_f2s): Conv2d(32, 64, kernel_size=(7, 1), stride=(4, 1), padding=(3, 0), bias=False)
    (bn): BatchNorm2d(64, eps=1e-05, momentum=0.1, affine=True, track_running_stats=True)
    (relu): ReLU(inplace=True)
  )
  (pathway0_pool): MaxPool2d(kernel_size=[1, 1], stride=[1, 1], padding=[0, 0], dilation=1, ceil_mode=False)
  (pathway1_pool): MaxPool2d(kernel_size=[1, 1], stride=[1, 1], padding=[0, 0], dilation=1, ceil_mode=False)
  (s3): ResStage(
    (pathway0_res0): ResBlock(
      (branch1): Conv2d(320, 512, kernel_size=(1, 1), stride=(1, 2), bias=False)
      (branch1_bn): BatchNorm2d(512, eps=1e-05, momentum=0.1, affine=True, track_running_stats=True)
      (branch2): BottleneckTransform(
        (a): Conv2d(320, 128, kernel_size=(1, 1), stride=(1, 1), bias=False)
        (a_bn): BatchNorm2d(128, eps=1e-05, momentum=0.1, affine=True, track_running_stats=True)
        (a_relu): ReLU(inplace=True)
        (b): Conv2d(128, 128, kernel_size=(1, 3), stride=(1, 2), padding=(0, 1), bias=False)
        (b_bn): BatchNorm2d(128, eps=1e-05, momentum=0.1, affine=True, track_running_stats=True)
        (b_relu): ReLU(inplace=True)
        (c): Conv2d(128, 512, kernel_size=(1, 1), stride=(1, 1), bias=False)
        (c_bn): BatchNorm2d(512, eps=1e-05, momentum=0.1, affine=True, track_running_stats=True)
      )
      (relu): ReLU(inplace=True)
    )
    (pathway0_res1): ResBlock(
      (branch2): BottleneckTransform(
        (a): Conv2d(512, 128, kernel_size=(1, 1), stride=(1, 1), bias=False)
        (a_bn): BatchNorm2d(128, eps=1e-05, momentum=0.1, affine=True, track_running_stats=True)
        (a_relu): ReLU(inplace=True)
        (b): Conv2d(128, 128, kernel_size=(1, 3), stride=(1, 1), padding=(0, 1), bias=False)
        (b_bn): BatchNorm2d(128, eps=1e-05, momentum=0.1, affine=True, track_running_stats=True)
        (b_relu): ReLU(inplace=True)
        (c): Conv2d(128, 512, kernel_size=(1, 1), stride=(1, 1), bias=False)
        (c_bn): BatchNorm2d(512, eps=1e-05, momentum=0.1, affine=True, track_running_stats=True)
      )
      (relu): ReLU(inplace=True)
    )
    (pathway0_res2): ResBlock(
      (branch2): BottleneckTransform(
        (a): Conv2d(512, 128, kernel_size=(1, 1), stride=(1, 1), bias=False)
        (a_bn): BatchNorm2d(128, eps=1e-05, momentum=0.1, affine=True, track_running_stats=True)
        (a_relu): ReLU(inplace=True)
        (b): Conv2d(128, 128, kernel_size=(1, 3), stride=(1, 1), padding=(0, 1), bias=False)
        (b_bn): BatchNorm2d(128, eps=1e-05, momentum=0.1, affine=True, track_running_stats=True)
        (b_relu): ReLU(inplace=True)
        (c): Conv2d(128, 512, kernel_size=(1, 1), stride=(1, 1), bias=False)
        (c_bn): BatchNorm2d(512, eps=1e-05, momentum=0.1, affine=True, track_running_stats=True)
      )
      (relu): ReLU(inplace=True)
    )
    (pathway0_res3): ResBlock(
      (branch2): BottleneckTransform(
        (a): Conv2d(512, 128, kernel_size=(1, 1), stride=(1, 1), bias=False)
        (a_bn): BatchNorm2d(128, eps=1e-05, momentum=0.1, affine=True, track_running_stats=True)
        (a_relu): ReLU(inplace=True)
        (b): Conv2d(128, 128, kernel_size=(1, 3), stride=(1, 1), padding=(0, 1), bias=False)
        (b_bn): BatchNorm2d(128, eps=1e-05, momentum=0.1, affine=True, track_running_stats=True)
        (b_relu): ReLU(inplace=True)
        (c): Conv2d(128, 512, kernel_size=(1, 1), stride=(1, 1), bias=False)
        (c_bn): BatchNorm2d(512, eps=1e-05, momentum=0.1, affine=True, track_running_stats=True)
      )
      (relu): ReLU(inplace=True)
    )
    (pathway1_res0): ResBlock(
      (branch1): Conv2d(32, 64, kernel_size=(1, 1), stride=(1, 2), bias=False)
      (branch1_bn): BatchNorm2d(64, eps=1e-05, momentum=0.1, affine=True, track_running_stats=True)
      (branch2): BottleneckTransform(
        (a): Conv2d(32, 16, kernel_size=(3, 1), stride=(1, 1), padding=(1, 0), bias=False)
        (a_bn): BatchNorm2d(16, eps=1e-05, momentum=0.1, affine=True, track_running_stats=True)
        (a_relu): ReLU(inplace=True)
        (b): Conv2d(16, 16, kernel_size=(1, 3), stride=(1, 2), padding=(0, 1), bias=False)
        (b_bn): BatchNorm2d(16, eps=1e-05, momentum=0.1, affine=True, track_running_stats=True)
        (b_relu): ReLU(inplace=True)
        (c): Conv2d(16, 64, kernel_size=(1, 1), stride=(1, 1), bias=False)
        (c_bn): BatchNorm2d(64, eps=1e-05, momentum=0.1, affine=True, track_running_stats=True)
      )
      (relu): ReLU(inplace=True)
    )
    (pathway1_res1): ResBlock(
      (branch2): BottleneckTransform(
        (a): Conv2d(64, 16, kernel_size=(3, 1), stride=(1, 1), padding=(1, 0), bias=False)
        (a_bn): BatchNorm2d(16, eps=1e-05, momentum=0.1, affine=True, track_running_stats=True)
        (a_relu): ReLU(inplace=True)
        (b): Conv2d(16, 16, kernel_size=(1, 3), stride=(1, 1), padding=(0, 1), bias=False)
        (b_bn): BatchNorm2d(16, eps=1e-05, momentum=0.1, affine=True, track_running_stats=True)
        (b_relu): ReLU(inplace=True)
        (c): Conv2d(16, 64, kernel_size=(1, 1), stride=(1, 1), bias=False)
        (c_bn): BatchNorm2d(64, eps=1e-05, momentum=0.1, affine=True, track_running_stats=True)
      )
      (relu): ReLU(inplace=True)
    )
    (pathway1_res2): ResBlock(
      (branch2): BottleneckTransform(
        (a): Conv2d(64, 16, kernel_size=(3, 1), stride=(1, 1), padding=(1, 0), bias=False)
        (a_bn): BatchNorm2d(16, eps=1e-05, momentum=0.1, affine=True, track_running_stats=True)
        (a_relu): ReLU(inplace=True)
        (b): Conv2d(16, 16, kernel_size=(1, 3), stride=(1, 1), padding=(0, 1), bias=False)
        (b_bn): BatchNorm2d(16, eps=1e-05, momentum=0.1, affine=True, track_running_stats=True)
        (b_relu): ReLU(inplace=True)
        (c): Conv2d(16, 64, kernel_size=(1, 1), stride=(1, 1), bias=False)
        (c_bn): BatchNorm2d(64, eps=1e-05, momentum=0.1, affine=True, track_running_stats=True)
      )
      (relu): ReLU(inplace=True)
    )
    (pathway1_res3): ResBlock(
      (branch2): BottleneckTransform(
        (a): Conv2d(64, 16, kernel_size=(3, 1), stride=(1, 1), padding=(1, 0), bias=False)
        (a_bn): BatchNorm2d(16, eps=1e-05, momentum=0.1, affine=True, track_running_stats=True)
        (a_relu): ReLU(inplace=True)
        (b): Conv2d(16, 16, kernel_size=(1, 3), stride=(1, 1), padding=(0, 1), bias=False)
        (b_bn): BatchNorm2d(16, eps=1e-05, momentum=0.1, affine=True, track_running_stats=True)
        (b_relu): ReLU(inplace=True)
        (c): Conv2d(16, 64, kernel_size=(1, 1), stride=(1, 1), bias=False)
        (c_bn): BatchNorm2d(64, eps=1e-05, momentum=0.1, affine=True, track_running_stats=True)
      )
      (relu): ReLU(inplace=True)
    )
  )
  (s3_fuse): FuseFastToSlow(
    (conv_f2s): Conv2d(64, 128, kernel_size=(7, 1), stride=(4, 1), padding=(3, 0), bias=False)
    (bn): BatchNorm2d(128, eps=1e-05, momentum=0.1, affine=True, track_running_stats=True)
    (relu): ReLU(inplace=True)
  )
  (s4): ResStage(
    (pathway0_res0): ResBlock(
      (branch1): Conv2d(640, 1024, kernel_size=(1, 1), stride=(1, 2), bias=False)
      (branch1_bn): BatchNorm2d(1024, eps=1e-05, momentum=0.1, affine=True, track_running_stats=True)
      (branch2): BottleneckTransform(
        (a): Conv2d(640, 256, kernel_size=(3, 1), stride=(1, 1), padding=(1, 0), bias=False)
        (a_bn): BatchNorm2d(256, eps=1e-05, momentum=0.1, affine=True, track_running_stats=True)
        (a_relu): ReLU(inplace=True)
        (b): Conv2d(256, 256, kernel_size=(1, 3), stride=(1, 2), padding=(0, 1), bias=False)
        (b_bn): BatchNorm2d(256, eps=1e-05, momentum=0.1, affine=True, track_running_stats=True)
        (b_relu): ReLU(inplace=True)
        (c): Conv2d(256, 1024, kernel_size=(1, 1), stride=(1, 1), bias=False)
        (c_bn): BatchNorm2d(1024, eps=1e-05, momentum=0.1, affine=True, track_running_stats=True)
      )
      (relu): ReLU(inplace=True)
    )
    (pathway0_res1): ResBlock(
      (branch2): BottleneckTransform(
        (a): Conv2d(1024, 256, kernel_size=(3, 1), stride=(1, 1), padding=(1, 0), bias=False)
        (a_bn): BatchNorm2d(256, eps=1e-05, momentum=0.1, affine=True, track_running_stats=True)
        (a_relu): ReLU(inplace=True)
        (b): Conv2d(256, 256, kernel_size=(1, 3), stride=(1, 1), padding=(0, 1), bias=False)
        (b_bn): BatchNorm2d(256, eps=1e-05, momentum=0.1, affine=True, track_running_stats=True)
        (b_relu): ReLU(inplace=True)
        (c): Conv2d(256, 1024, kernel_size=(1, 1), stride=(1, 1), bias=False)
        (c_bn): BatchNorm2d(1024, eps=1e-05, momentum=0.1, affine=True, track_running_stats=True)
      )
      (relu): ReLU(inplace=True)
    )
    (pathway0_res2): ResBlock(
      (branch2): BottleneckTransform(
        (a): Conv2d(1024, 256, kernel_size=(3, 1), stride=(1, 1), padding=(1, 0), bias=False)
        (a_bn): BatchNorm2d(256, eps=1e-05, momentum=0.1, affine=True, track_running_stats=True)
        (a_relu): ReLU(inplace=True)
        (b): Conv2d(256, 256, kernel_size=(1, 3), stride=(1, 1), padding=(0, 1), bias=False)
        (b_bn): BatchNorm2d(256, eps=1e-05, momentum=0.1, affine=True, track_running_stats=True)
        (b_relu): ReLU(inplace=True)
        (c): Conv2d(256, 1024, kernel_size=(1, 1), stride=(1, 1), bias=False)
        (c_bn): BatchNorm2d(1024, eps=1e-05, momentum=0.1, affine=True, track_running_stats=True)
      )
      (relu): ReLU(inplace=True)
    )
    (pathway0_res3): ResBlock(
      (branch2): BottleneckTransform(
        (a): Conv2d(1024, 256, kernel_size=(3, 1), stride=(1, 1), padding=(1, 0), bias=False)
        (a_bn): BatchNorm2d(256, eps=1e-05, momentum=0.1, affine=True, track_running_stats=True)
        (a_relu): ReLU(inplace=True)
        (b): Conv2d(256, 256, kernel_size=(1, 3), stride=(1, 1), padding=(0, 1), bias=False)
        (b_bn): BatchNorm2d(256, eps=1e-05, momentum=0.1, affine=True, track_running_stats=True)
        (b_relu): ReLU(inplace=True)
        (c): Conv2d(256, 1024, kernel_size=(1, 1), stride=(1, 1), bias=False)
        (c_bn): BatchNorm2d(1024, eps=1e-05, momentum=0.1, affine=True, track_running_stats=True)
      )
      (relu): ReLU(inplace=True)
    )
    (pathway0_res4): ResBlock(
      (branch2): BottleneckTransform(
        (a): Conv2d(1024, 256, kernel_size=(3, 1), stride=(1, 1), padding=(1, 0), bias=False)
        (a_bn): BatchNorm2d(256, eps=1e-05, momentum=0.1, affine=True, track_running_stats=True)
        (a_relu): ReLU(inplace=True)
        (b): Conv2d(256, 256, kernel_size=(1, 3), stride=(1, 1), padding=(0, 1), bias=False)
        (b_bn): BatchNorm2d(256, eps=1e-05, momentum=0.1, affine=True, track_running_stats=True)
        (b_relu): ReLU(inplace=True)
        (c): Conv2d(256, 1024, kernel_size=(1, 1), stride=(1, 1), bias=False)
        (c_bn): BatchNorm2d(1024, eps=1e-05, momentum=0.1, affine=True, track_running_stats=True)
      )
      (relu): ReLU(inplace=True)
    )
    (pathway0_res5): ResBlock(
      (branch2): BottleneckTransform(
        (a): Conv2d(1024, 256, kernel_size=(3, 1), stride=(1, 1), padding=(1, 0), bias=False)
        (a_bn): BatchNorm2d(256, eps=1e-05, momentum=0.1, affine=True, track_running_stats=True)
        (a_relu): ReLU(inplace=True)
        (b): Conv2d(256, 256, kernel_size=(1, 3), stride=(1, 1), padding=(0, 1), bias=False)
        (b_bn): BatchNorm2d(256, eps=1e-05, momentum=0.1, affine=True, track_running_stats=True)
        (b_relu): ReLU(inplace=True)
        (c): Conv2d(256, 1024, kernel_size=(1, 1), stride=(1, 1), bias=False)
        (c_bn): BatchNorm2d(1024, eps=1e-05, momentum=0.1, affine=True, track_running_stats=True)
      )
      (relu): ReLU(inplace=True)
    )
    (pathway1_res0): ResBlock(
      (branch1): Conv2d(64, 128, kernel_size=(1, 1), stride=(1, 2), bias=False)
      (branch1_bn): BatchNorm2d(128, eps=1e-05, momentum=0.1, affine=True, track_running_stats=True)
      (branch2): BottleneckTransform(
        (a): Conv2d(64, 32, kernel_size=(3, 1), stride=(1, 1), padding=(1, 0), bias=False)
        (a_bn): BatchNorm2d(32, eps=1e-05, momentum=0.1, affine=True, track_running_stats=True)
        (a_relu): ReLU(inplace=True)
        (b): Conv2d(32, 32, kernel_size=(1, 3), stride=(1, 2), padding=(0, 1), bias=False)
        (b_bn): BatchNorm2d(32, eps=1e-05, momentum=0.1, affine=True, track_running_stats=True)
        (b_relu): ReLU(inplace=True)
        (c): Conv2d(32, 128, kernel_size=(1, 1), stride=(1, 1), bias=False)
        (c_bn): BatchNorm2d(128, eps=1e-05, momentum=0.1, affine=True, track_running_stats=True)
      )
      (relu): ReLU(inplace=True)
    )
    (pathway1_res1): ResBlock(
      (branch2): BottleneckTransform(
        (a): Conv2d(128, 32, kernel_size=(3, 1), stride=(1, 1), padding=(1, 0), bias=False)
        (a_bn): BatchNorm2d(32, eps=1e-05, momentum=0.1, affine=True, track_running_stats=True)
        (a_relu): ReLU(inplace=True)
        (b): Conv2d(32, 32, kernel_size=(1, 3), stride=(1, 1), padding=(0, 1), bias=False)
        (b_bn): BatchNorm2d(32, eps=1e-05, momentum=0.1, affine=True, track_running_stats=True)
        (b_relu): ReLU(inplace=True)
        (c): Conv2d(32, 128, kernel_size=(1, 1), stride=(1, 1), bias=False)
        (c_bn): BatchNorm2d(128, eps=1e-05, momentum=0.1, affine=True, track_running_stats=True)
      )
      (relu): ReLU(inplace=True)
    )
    (pathway1_res2): ResBlock(
      (branch2): BottleneckTransform(
        (a): Conv2d(128, 32, kernel_size=(3, 1), stride=(1, 1), padding=(1, 0), bias=False)
        (a_bn): BatchNorm2d(32, eps=1e-05, momentum=0.1, affine=True, track_running_stats=True)
        (a_relu): ReLU(inplace=True)
        (b): Conv2d(32, 32, kernel_size=(1, 3), stride=(1, 1), padding=(0, 1), bias=False)
        (b_bn): BatchNorm2d(32, eps=1e-05, momentum=0.1, affine=True, track_running_stats=True)
        (b_relu): ReLU(inplace=True)
        (c): Conv2d(32, 128, kernel_size=(1, 1), stride=(1, 1), bias=False)
        (c_bn): BatchNorm2d(128, eps=1e-05, momentum=0.1, affine=True, track_running_stats=True)
      )
      (relu): ReLU(inplace=True)
    )
    (pathway1_res3): ResBlock(
      (branch2): BottleneckTransform(
        (a): Conv2d(128, 32, kernel_size=(3, 1), stride=(1, 1), padding=(1, 0), bias=False)
        (a_bn): BatchNorm2d(32, eps=1e-05, momentum=0.1, affine=True, track_running_stats=True)
        (a_relu): ReLU(inplace=True)
        (b): Conv2d(32, 32, kernel_size=(1, 3), stride=(1, 1), padding=(0, 1), bias=False)
        (b_bn): BatchNorm2d(32, eps=1e-05, momentum=0.1, affine=True, track_running_stats=True)
        (b_relu): ReLU(inplace=True)
        (c): Conv2d(32, 128, kernel_size=(1, 1), stride=(1, 1), bias=False)
        (c_bn): BatchNorm2d(128, eps=1e-05, momentum=0.1, affine=True, track_running_stats=True)
      )
      (relu): ReLU(inplace=True)
    )
    (pathway1_res4): ResBlock(
      (branch2): BottleneckTransform(
        (a): Conv2d(128, 32, kernel_size=(3, 1), stride=(1, 1), padding=(1, 0), bias=False)
        (a_bn): BatchNorm2d(32, eps=1e-05, momentum=0.1, affine=True, track_running_stats=True)
        (a_relu): ReLU(inplace=True)
        (b): Conv2d(32, 32, kernel_size=(1, 3), stride=(1, 1), padding=(0, 1), bias=False)
        (b_bn): BatchNorm2d(32, eps=1e-05, momentum=0.1, affine=True, track_running_stats=True)
        (b_relu): ReLU(inplace=True)
        (c): Conv2d(32, 128, kernel_size=(1, 1), stride=(1, 1), bias=False)
        (c_bn): BatchNorm2d(128, eps=1e-05, momentum=0.1, affine=True, track_running_stats=True)
      )
      (relu): ReLU(inplace=True)
    )
    (pathway1_res5): ResBlock(
      (branch2): BottleneckTransform(
        (a): Conv2d(128, 32, kernel_size=(3, 1), stride=(1, 1), padding=(1, 0), bias=False)
        (a_bn): BatchNorm2d(32, eps=1e-05, momentum=0.1, affine=True, track_running_stats=True)
        (a_relu): ReLU(inplace=True)
        (b): Conv2d(32, 32, kernel_size=(1, 3), stride=(1, 1), padding=(0, 1), bias=False)
        (b_bn): BatchNorm2d(32, eps=1e-05, momentum=0.1, affine=True, track_running_stats=True)
        (b_relu): ReLU(inplace=True)
        (c): Conv2d(32, 128, kernel_size=(1, 1), stride=(1, 1), bias=False)
        (c_bn): BatchNorm2d(128, eps=1e-05, momentum=0.1, affine=True, track_running_stats=True)
      )
      (relu): ReLU(inplace=True)
    )
  )
  (s4_fuse): FuseFastToSlow(
    (conv_f2s): Conv2d(128, 256, kernel_size=(7, 1), stride=(4, 1), padding=(3, 0), bias=False)
    (bn): BatchNorm2d(256, eps=1e-05, momentum=0.1, affine=True, track_running_stats=True)
    (relu): ReLU(inplace=True)
  )
  (s5): ResStage(
    (pathway0_res0): ResBlock(
      (branch1): Conv2d(1280, 2048, kernel_size=(1, 1), stride=(1, 2), bias=False)
      (branch1_bn): BatchNorm2d(2048, eps=1e-05, momentum=0.1, affine=True, track_running_stats=True)
      (branch2): BottleneckTransform(
        (a): Conv2d(1280, 512, kernel_size=(3, 1), stride=(1, 1), padding=(1, 0), bias=False)
        (a_bn): BatchNorm2d(512, eps=1e-05, momentum=0.1, affine=True, track_running_stats=True)
        (a_relu): ReLU(inplace=True)
        (b): Conv2d(512, 512, kernel_size=(1, 3), stride=(1, 2), padding=(0, 1), bias=False)
        (b_bn): BatchNorm2d(512, eps=1e-05, momentum=0.1, affine=True, track_running_stats=True)
        (b_relu): ReLU(inplace=True)
        (c): Conv2d(512, 2048, kernel_size=(1, 1), stride=(1, 1), bias=False)
        (c_bn): BatchNorm2d(2048, eps=1e-05, momentum=0.1, affine=True, track_running_stats=True)
      )
      (relu): ReLU(inplace=True)
    )
    (pathway0_res1): ResBlock(
      (branch2): BottleneckTransform(
        (a): Conv2d(2048, 512, kernel_size=(3, 1), stride=(1, 1), padding=(1, 0), bias=False)
        (a_bn): BatchNorm2d(512, eps=1e-05, momentum=0.1, affine=True, track_running_stats=True)
        (a_relu): ReLU(inplace=True)
        (b): Conv2d(512, 512, kernel_size=(1, 3), stride=(1, 1), padding=(0, 1), bias=False)
        (b_bn): BatchNorm2d(512, eps=1e-05, momentum=0.1, affine=True, track_running_stats=True)
        (b_relu): ReLU(inplace=True)
        (c): Conv2d(512, 2048, kernel_size=(1, 1), stride=(1, 1), bias=False)
        (c_bn): BatchNorm2d(2048, eps=1e-05, momentum=0.1, affine=True, track_running_stats=True)
      )
      (relu): ReLU(inplace=True)
    )
    (pathway0_res2): ResBlock(
      (branch2): BottleneckTransform(
        (a): Conv2d(2048, 512, kernel_size=(3, 1), stride=(1, 1), padding=(1, 0), bias=False)
        (a_bn): BatchNorm2d(512, eps=1e-05, momentum=0.1, affine=True, track_running_stats=True)
        (a_relu): ReLU(inplace=True)
        (b): Conv2d(512, 512, kernel_size=(1, 3), stride=(1, 1), padding=(0, 1), bias=False)
        (b_bn): BatchNorm2d(512, eps=1e-05, momentum=0.1, affine=True, track_running_stats=True)
        (b_relu): ReLU(inplace=True)
        (c): Conv2d(512, 2048, kernel_size=(1, 1), stride=(1, 1), bias=False)
        (c_bn): BatchNorm2d(2048, eps=1e-05, momentum=0.1, affine=True, track_running_stats=True)
      )
      (relu): ReLU(inplace=True)
    )
    (pathway1_res0): ResBlock(
      (branch1): Conv2d(128, 256, kernel_size=(1, 1), stride=(1, 2), bias=False)
      (branch1_bn): BatchNorm2d(256, eps=1e-05, momentum=0.1, affine=True, track_running_stats=True)
      (branch2): BottleneckTransform(
        (a): Conv2d(128, 64, kernel_size=(3, 1), stride=(1, 1), padding=(1, 0), bias=False)
        (a_bn): BatchNorm2d(64, eps=1e-05, momentum=0.1, affine=True, track_running_stats=True)
        (a_relu): ReLU(inplace=True)
        (b): Conv2d(64, 64, kernel_size=(1, 3), stride=(1, 2), padding=(0, 1), bias=False)
        (b_bn): BatchNorm2d(64, eps=1e-05, momentum=0.1, affine=True, track_running_stats=True)
        (b_relu): ReLU(inplace=True)
        (c): Conv2d(64, 256, kernel_size=(1, 1), stride=(1, 1), bias=False)
        (c_bn): BatchNorm2d(256, eps=1e-05, momentum=0.1, affine=True, track_running_stats=True)
      )
      (relu): ReLU(inplace=True)
    )
    (pathway1_res1): ResBlock(
      (branch2): BottleneckTransform(
        (a): Conv2d(256, 64, kernel_size=(3, 1), stride=(1, 1), padding=(1, 0), bias=False)
        (a_bn): BatchNorm2d(64, eps=1e-05, momentum=0.1, affine=True, track_running_stats=True)
        (a_relu): ReLU(inplace=True)
        (b): Conv2d(64, 64, kernel_size=(1, 3), stride=(1, 1), padding=(0, 1), bias=False)
        (b_bn): BatchNorm2d(64, eps=1e-05, momentum=0.1, affine=True, track_running_stats=True)
        (b_relu): ReLU(inplace=True)
        (c): Conv2d(64, 256, kernel_size=(1, 1), stride=(1, 1), bias=False)
        (c_bn): BatchNorm2d(256, eps=1e-05, momentum=0.1, affine=True, track_running_stats=True)
      )
      (relu): ReLU(inplace=True)
    )
    (pathway1_res2): ResBlock(
      (branch2): BottleneckTransform(
        (a): Conv2d(256, 64, kernel_size=(3, 1), stride=(1, 1), padding=(1, 0), bias=False)
        (a_bn): BatchNorm2d(64, eps=1e-05, momentum=0.1, affine=True, track_running_stats=True)
        (a_relu): ReLU(inplace=True)
        (b): Conv2d(64, 64, kernel_size=(1, 3), stride=(1, 1), padding=(0, 1), bias=False)
        (b_bn): BatchNorm2d(64, eps=1e-05, momentum=0.1, affine=True, track_running_stats=True)
        (b_relu): ReLU(inplace=True)
        (c): Conv2d(64, 256, kernel_size=(1, 1), stride=(1, 1), bias=False)
        (c_bn): BatchNorm2d(256, eps=1e-05, momentum=0.1, affine=True, track_running_stats=True)
      )
      (relu): ReLU(inplace=True)
    )
  )
  (head): ResNetBasicHead(
    (pathway0_avgpool): AdaptiveAvgPool2d(output_size=(1, 1))
    (pathway1_avgpool): AdaptiveAvgPool2d(output_size=(1, 1))
    (dropout): Dropout(p=0.5, inplace=False)
    (projection): Linear(in_features=2304, out_features=28, bias=True)
    (act): Softmax(dim=3)
  )
)
[04/19 17:24:30][INFO] misc.py: 133: Params: 26,031,748
[04/19 17:24:30][INFO] misc.py: 134: Mem: 0.09891176223754883 MB
[04/19 17:24:30][WARNING] jit_analysis.py: 499: Unsupported operator aten::max_pool2d encountered 4 time(s)
[04/19 17:24:30][WARNING] jit_analysis.py: 499: Unsupported operator aten::add encountered 32 time(s)
…
